…
                - 1
                - 2
                - 3
                - 13
                - 16
                - 22
                - 35
            "4": 3.9.18
            "5": 0.22.2
            "12": 0.22.2
            "13": linux-x86_64
action_noise:
    value: VecNoise(BaseNoise=NormalActionNoise(mu=[0.0], sigma=[0.3])), n_envs=16)
action_space:
    value: Box(-1.0, 1.0, (8,), float32)
actor:
    value: |-
        Actor(
          (features_extractor): FlattenExtractor(
            (flatten): Flatten(start_dim=1, end_dim=-1)
          )
          (latent_pi): Sequential(
            (0): Linear(in_features=107, out_features=256, bias=True)
            (1): ReLU()
            (2): Linear(in_features=256, out_features=256, bias=True)
            (3): ReLU()
            (4): Linear(in_features=256, out_features=256, bias=True)
            (5): ReLU()
            (6): Linear(in_features=256, out_features=256, bias=True)
            (7): ReLU()
          )
          (mu): Linear(in_features=256, out_features=8, bias=True)
          (log_std): Linear(in_features=256, out_features=8, bias=True)
        )
algo:
    value: SAC
batch_norm_stats:
    value: '[]'
batch_norm_stats_target:
    value: '[]'
batch_size:
    value: 256
buffer_size:
    value: 1000000
checkpoint_dir:
    value: ./logs/GoalAnt
checkpoint_filename:
    value: GoalAnt_model
critic:
    value: |-
        ContinuousCritic(
          (features_extractor): FlattenExtractor(
            (flatten): Flatten(start_dim=1, end_dim=-1)
          )
          (qf0): Sequential(
            (0): Linear(in_features=115, out_features=256, bias=True)
            (1): ReLU()
            (2): Linear(in_features=256, out_features=256, bias=True)
            (3): ReLU()
            (4): Linear(in_features=256, out_features=256, bias=True)
            (5): ReLU()
            (6): Linear(in_features=256, out_features=256, bias=True)
            (7): ReLU()
            (8): Linear(in_features=256, out_features=1, bias=True)
          )
          (qf1): Sequential(
            (0): Linear(in_features=115, out_features=256, bias=True)
            (1): ReLU()
            (2): Linear(in_features=256, out_features=256, bias=True)
            (3): ReLU()
            (4): Linear(in_features=256, out_features=256, bias=True)
            (5): ReLU()
            (6): Linear(in_features=256, out_features=256, bias=True)
            (7): ReLU()
            (8): Linear(in_features=256, out_features=1, bias=True)
          )
        )
critic_target:
    value: |-
        ContinuousCritic(
          (features_extractor): FlattenExtractor(
            (flatten): Flatten(start_dim=1, end_dim=-1)
          )
          (qf0): Sequential(
            (0): Linear(in_features=115, out_features=256, bias=True)
            (1): ReLU()
            (2): Linear(in_features=256, out_features=256, bias=True)
            (3): ReLU()
            (4): Linear(in_features=256, out_features=256, bias=True)
            (5): ReLU()
            (6): Linear(in_features=256, out_features=256, bias=True)
            (7): ReLU()
            (8): Linear(in_features=256, out_features=1, bias=True)
          )
          (qf1): Sequential(
            (0): Linear(in_features=115, out_features=256, bias=True)
            (1): ReLU()
            (2): Linear(in_features=256, out_features=256, bias=True)
            (3): ReLU()
            (4): Linear(in_features=256, out_features=256, bias=True)
            (5): ReLU()
            (6): Linear(in_features=256, out_features=256, bias=True)
            (7): ReLU()
            (8): Linear(in_features=256, out_features=1, bias=True)
          )
        )
device:
    value: cpu
ent_coef:
    value: auto_0.1
ent_coef_optimizer:
    value: |-
        Adam (
        Parameter Group 0
            amsgrad: False
            betas: (0.9, 0.999)
            capturable: False
            decoupled_weight_decay: False
            differentiable: False
            eps: 1e-08
            foreach: None
…
