…
True)', 'ent_coef': 'auto_0.1', 'target_update_interval': 1, 'ent_coef_optimizer': 'Adam (\nParameter Group 0\n    amsgrad: False\n    betas: (0.9, 0.999)\n    capturable: False\n    decoupled_weight_decay: False\n    differentiable: False\n    eps: 1e-08\n    foreach: None\n    fused: None\n    lr: 0.0003\n    maximize: False\n    weight_decay: 0\n)', 'lr_schedule': 'FloatSchedule(ConstantSchedule(val=0.0003))', 'policy': 'SACPolicy(\n  (actor): Actor(\n    (features_extractor): FlattenExtractor(\n      (flatten): Flatten(start_dim=1, end_dim=-1)\n    )\n    (latent_pi): Sequential(\n      (0): Linear(in_features=107, out_features=256, bias=True)\n      (1): ReLU()\n      (2): Linear(in_features=256, out_features=256, bias=True)\n      (3): ReLU()\n      (4): Linear(in_features=256, out_features=256, bias=True)\n      (5): ReLU()\n      (6): Linear(in_features=256, out_features=256, bias=True)\n      (7): ReLU()\n    )\n    (mu): Linear(in_features=256, out_features=8, bias=True)\n    (log_std): Linear(in_features=256, out_features=8, bias=True)\n  )\n  (critic): ContinuousCritic(\n    (features_extractor): FlattenExtractor(\n      (flatten): Flatten(start_dim=1, end_dim=-1)\n    )\n    (qf0): Sequential(\n      (0): Linear(in_features=115, out_features=256, bias=True)\n      (1): ReLU()\n      (2): Linear(in_features=256, out_features=256, bias=True)\n      (3): ReLU()\n      (4): Linear(in_features=256, out_features=256, bias=True)\n      (5): ReLU()\n      (6): Linear(in_features=256, out_features=256, bias=True)\n      (7): ReLU()\n      (8): Linear(in_features=256, out_features=1, bias=True)\n    )\n    (qf1): Sequential(\n      (0): Linear(in_features=115, out_features=256, bias=True)\n      (1): ReLU()\n      (2): Linear(in_features=256, out_features=256, bias=True)\n      (3): ReLU()\n      (4): Linear(in_features=256, out_features=256, bias=True)\n      (5): ReLU()\n      (6): Linear(in_features=256, out_features=256, bias=True)\n      (7): ReLU()\n      (8): Linear(in_features=256, out_features=1, bias=True)\n    )\n  )\n  (critic_target): ContinuousCritic(\n    (features_extractor): FlattenExtractor(\n      (flatten): Flatten(start_dim=1, end_dim=-1)\n    )\n    (qf0): Sequential(\n      (0): Linear(in_features=115, out_features=256, bias=True)\n      (1): ReLU()\n      (2): Linear(in_features=256, out_features=256, bias=True)\n      (3): ReLU()\n      (4): Linear(in_features=256, out_features=256, bias=True)\n      (5): ReLU()\n      (6): Linear(in_features=256, out_features=256, bias=True)\n      (7): ReLU()\n      (8): Linear(in_features=256, out_features=1, bias=True)\n    )\n    (qf1): Sequential(\n      (0): Linear(in_features=115, out_features=256, bias=True)\n      (1): ReLU()\n      (2): Linear(in_features=256, out_features=256, bias=True)\n      (3): ReLU()\n      (4): Linear(in_features=256, out_features=256, bias=True)\n      (5): ReLU()\n      (6): Linear(in_features=256, out_features=256, bias=True)\n      (7): ReLU()\n      (8): Linear(in_features=256, out_features=1, bias=True)\n    )\n  )\n)', 'actor': 'Actor(\n  (features_extractor): FlattenExtractor(\n    (flatten): Flatten(start_dim=1, end_dim=-1)\n  )\n  (latent_pi): Sequential(\n    (0): Linear(in_features=107, out_features=256, bias=True)\n    (1): ReLU()\n    (2): Linear(in_features=256, out_features=256, bias=True)\n    (3): ReLU()\n    (4): Linear(in_features=256, out_features=256, bias=True)\n    (5): ReLU()\n    (6): Linear(in_features=256, out_features=256, bias=True)\n    (7): ReLU()\n  )\n  (mu): Linear(in_features=256, out_features=8, bias=True)\n  (log_std): Linear(in_features=256, out_features=8, bias=True)\n)', 'critic': 'ContinuousCritic(\n  (features_extractor): FlattenExtractor(\n    (flatten): Flatten(start_dim=1, end_dim=-1)\n  )\n  (qf0): Sequential(\n    (0): Linear(in_features=115, out_features=256, bias=True)\n    (1): ReLU()\n    (2): Linear(in_features=256, out_features=256, bias=True)\n    (3): ReLU()\n    (4): Linear(in_features=256, out_features=256, bias=True)\n    (5): ReLU()\n    (6): Linear(in_features=256, out_features=256, bias=True)\n    (7): ReLU()\n    (8): Linear(in_features=256, out_features=1, bias=True)\n  )\n  (qf1): Sequential(\n    (0): Linear(in_features=115, out_features=256, bias=True)\n    (1): ReLU()\n    (2): Linear(in_features=256, out_features=256, bias=True)\n    (3): ReLU()\n    (4): Linear(in_features=256, out_features=256, bias=True)\n    (5): ReLU()\n    (6): Linear(in_features=256, out_features=256, bias=True)\n    (7): ReLU()\n    (8): Linear(in_features=256, out_features=1, bias=True)\n  )\n)', 'critic_target': 'ContinuousCritic(\n  (features_extractor): FlattenExtractor(\n    (flatten): Flatten(start_dim=1, end_dim=-1)\n  )\n  (qf0): Sequential(\n    (0): Linear(in_features=115, out_features=256, bias=True)\n    (1): ReLU()\n    (2): Linear(in_features=256, out_features=256, bias=True)\n    (3): ReLU()\n    (4): Linear(in_features=256, out_features=256, bias=True)\n    (5): ReLU()\n    (6): Linear(in_features=256, out_features=256, bias=True)\n    (7): ReLU()\n    (8): Linear(in_features=256, out_features=1, bias=True)\n  )\n  (qf1): Sequential(\n    (0): Linear(in_features=115, out_features=256, bias=True)\n    (1): ReLU()\n    (2): Linear(in_features=256, out_features=256, bias=True)\n    (3): ReLU()\n    (4): Linear(in_features=256, out_features=256, bias=True)\n    (5): ReLU()\n    (6): Linear(in_features=256, out_features=256, bias=True)\n    (7): ReLU()\n    (8): Linear(in_features=256, out_features=1, bias=True)\n  )\n)', 'batch_norm_stats': '[]', 'batch_norm_stats_target': '[]', '_logger': '<stable_baselines3.common.logger.Logger object at 0x14bf378a6b50>'}
2025-11-18 17:30:54,345 INFO    MainThread:68778 [wandb_run.py:_finish():2275] finishing run lukaszsawala2003-university-of-amsterdam/GoalAnt/9sxg2f29
2025-11-18 17:30:54,347 INFO    MainThread:68778 [wandb_run.py:_atexit_cleanup():2474] got exitcode: 0
…
